{"modelTopology":{"class_name":"Sequential","config":{"name":"sequential","layers":[{"class_name":"Conv2D","config":{"name":"conv2d_input","trainable":true,"batch_input_shape":[null,224,224,3],"filters":64,"kernel_size":[3,3],"strides":[1,1],"padding":"same","activation":"relu","use_bias":true}},{"class_name":"Conv2D","config":{"name":"conv2d_2","trainable":true,"filters":128,"kernel_size":[3,3],"strides":[1,1],"padding":"same","activation":"relu","use_bias":true}},{"class_name":"Conv2D","config":{"name":"conv2d_3","trainable":true,"filters":256,"kernel_size":[3,3],"strides":[1,1],"padding":"same","activation":"relu","use_bias":true}},{"class_name":"Conv2D","config":{"name":"conv2d_4","trainable":true,"filters":256,"kernel_size":[3,3],"strides":[1,1],"padding":"same","activation":"relu","use_bias":true}},{"class_name":"MaxPooling2D","config":{"name":"max_pooling2d_1","trainable":true,"pool_size":[2,2],"strides":[2,2],"padding":"valid"}},{"class_name":"Conv2D","config":{"name":"conv2d_5","trainable":true,"filters":512,"kernel_size":[3,3],"strides":[1,1],"padding":"same","activation":"relu","use_bias":true}},{"class_name":"Conv2D","config":{"name":"conv2d_6","trainable":true,"filters":512,"kernel_size":[3,3],"strides":[1,1],"padding":"same","activation":"relu","use_bias":true}},{"class_name":"MaxPooling2D","config":{"name":"max_pooling2d_2","trainable":true,"pool_size":[2,2],"strides":[2,2],"padding":"valid"}},{"class_name":"Conv2D","config":{"name":"conv2d_7","trainable":true,"filters":512,"kernel_size":[3,3],"strides":[1,1],"padding":"same","activation":"relu","use_bias":true}},{"class_name":"Conv2D","config":{"name":"conv2d_8","trainable":true,"filters":512,"kernel_size":[3,3],"strides":[1,1],"padding":"same","activation":"relu","use_bias":true}},{"class_name":"Conv2D","config":{"name":"conv2d_9","trainable":true,"filters":1024,"kernel_size":[3,3],"strides":[1,1],"padding":"same","activation":"relu","use_bias":true}},{"class_name":"GlobalAveragePooling2D","config":{"name":"gap","trainable":true,"data_format":"channels_last"}},{"class_name":"Dense","config":{"name":"dense_1","trainable":true,"units":2048,"activation":"relu","use_bias":true}},{"class_name":"Dropout","config":{"name":"dropout","trainable":true,"rate":0.3}},{"class_name":"Dense","config":{"name":"predictions","trainable":true,"units":3,"activation":"softmax","use_bias":true}}]}},"format":"layers-model","generatedBy":"TensorFlow.js tfjs-layers v4.22.0","convertedBy":"Grocery ML Classifier v1.0.0"}